model.pt (torch, 7662 bytes, 19 tensors)

linear.0.weight f4 [8, 17]
0.005542505 -0.07995437 0.13757206 -0.0683617 0.15671593 0.11453625 0.005258823 -0.0807733
0.017151937 -0.24370652 -0.022430522 0.055497546 -0.01951919 0.14848575 0.023771074 0.0878486
0.026258761 -0.14307943 -0.093239054 0.23325089 -0.23755816 -0.016472608 -0.019220889 0.1720328
-0.023057744 0.06386396 -0.011642605 -0.13580704 -0.13746682 -0.11783199 -0.22032045 -0.15740132
0.057080507 0.15962386 0.020312361 -0.075417265 0.14484873 -0.0958571 -0.02855618 -0.1878453
-0.052966315 -0.2059465 0.119724765 0.10901593 0.03296923 0.10923267 0.07667988 -0.04575511
0.012876491 0.01724829 0.1279938 0.17044696 0.1042685 0.126987 -0.1731844 0.0011485209
-0.016747992 0.16356298 -0.031063592 0.22602527 0.12908278 -0.22765815 0.030332536 0.20661192
0.1657651 -0.04117201 0.04489066 -0.31281585 -0.07177843 0.10917345 -0.23189792 0.21680124
-0.15035936 0.092236616 -0.005672453 0.03390304 0.026582904 -0.22877702 -0.03743634 -0.15157083
0.21009909 -0.017025901 -0.24292797 0.062258996 0.113520294 -0.10857314 -0.022751763 0.10485065
-0.15090728 -0.12820831 -0.023396522 -0.17032161 0.14906198 0.01983726 0.1451101 0.12984282
-0.1869129 -0.15117106 -0.16589004 -0.07795116 -0.088628426 -0.039079905 -0.23927295 0.16709642
0.14963053 0.12299855 0.11845498 0.2290493 -0.1866838 0.086356185 0.18785717 -0.14481936
-0.108525805 0.015477458 -0.12059819 0.001028466 0.013315301 0.22127663 0.026858775 0.10022248
0.22050746 0.14466222 -0.11761493 0.18891288 0.17217007 -0.13917698 -0.011093407 0.14526097
-0.25040242 -0.22615562 -0.10640825 0.12558432 -0.07664229 -0.165366 0.16002165 0.15403487
00000000: e79d b53b 1ebf a3bd b1df 0c3e 3801 8cbd
00000010: 247a 203e fb91 ea3d 3452 ac3b 796c a5bd
00000020: 3882 8c3c 348e 79be 37c0 b7bc 6551 633d
00000030: b5e6 9fbc a60c 183e 8ebb c23c f7e9 b33d
00000040: 9d1c d73c 6a83 12be 1ef4 bebd 52d9 6e3e
00000050: 7242 73be 90f1 86bc 2075 9dbc 5e29 303e
00000060: 98e3 bcbc 1ccb 823d a0c0 3ebc 0011 0bbe
00000070: 1ac4 0cbe e651 f1bd af9b 61be d02d 21be
00000080: 40cd 693d 7074 233e 1c66 a63c 5e74 9abd
00000090: 3a53 143e ba50 c4bd a6ee e9bc 855a 40be
000000a0: 35f3 58bd a4e3 52be 4232 f53d be43 df3d
000000b0: be0a 073d 61b5 df3d 570a 9d3d b669 3bbd
000000c0: ebf7 523c 494c 8d3c cf10 033e a689 2e3e
000000d0: b98a d53d e108 023e 4057 31be f789 963a
000000e0: 1633 89bc 0e7d 273e 1379 febc 2b73 673e
000000f0: 472e 043e 381f 69be f07b f83c 1392 533e
00000100: 54be 293e fba3 28bd 45df 373d 6629 a0be
00000110: 9200 93bd 5496 df3d a676 6dbe 2501 5e3e
00000120: cef7 19be 8de6 bc3d fcdf b9bb eadd 0a3d
00000130: 64c4 d93c 8644 6abe d956 19bd 6235 1bbe
00000140: 3724 573e e779 8bbc 1cc2 78be 4a03 7f3d
00000150: 547d e83d 985b debd e861 babc f0bb d63d
00000160: 7087 1abe 0a49 03be 10aa bfbc ca68 2ebe
00000170: b4a3 183e c081 a23c be97 143e 84f5 043e
00000180: 1866 3fbe 96cc 1abe 14df 29be dca4 9fbd
00000190: d282 b5bd 4012 20bd f803 75be 531b 2b3e
000001a0: bf38 193e aae6 fb3d 8698 f23d e68b 6a3e
000001b0: 0a2a 3fbe 83db b03d a15d 403e 874b 14be
000001c0: c742 debd 2a95 7d3c 2ffc f6bd 98cd 863a
000001d0: 6c28 5a3c 5796 623e ef06 dc3c 7241 cd3d
000001e0: b5cc 613e 5522 143e 19e0 f0bd 6172 413e
000001f0: 5a4d 303e 6984 0ebe 1fc1 35bc 4bbf 143e
00000200: bf34 80be 5795 67be 92ec d9bd 2d99 003e
00000210: a2f6 9cbd b455 29be b7dc 233e 51bb 1d3e

linear.0.bias f4 [8]
0.14991033 -0.20779788 0.2264719 -0.067207426 -0.22777806 -0.0365116 0.17431849 0.13244356
00000000: 1882 193e f8c8 54be 40e8 673e 0ca4 89bd
00000010: a73e 69be 308d 15bd 8c80 323e 499f 073e

linear.2.weight f4 [8]
0.98860747 1.0 0.99301237 0.92356026 0.94381094 1.0 1.0473802 1.0433246
00000000: 6115 7d3f 0000 803f 0f36 7e3f 726e 6c3f
00000010: 989d 713f 0000 803f 8e10 863f a98b 853f

linear.2.bias f4 [8]
0.013496938 0.065326795 -0.06579808 0.048301693 0.05892991 -0.06693289 -0.05653581 -0.06329786
00000000: 4322 5d3c 0eca 853d 25c1 86bd ffd7 453d
00000010: 7d60 713d 1c14 89bd 1892 67bd 4fa2 81bd

linear.2.running_mean f4 [8]
2.2331364 0.0 4.592779 24.070822 0.5530686 0.0 10.622414 19.48214
00000000: b5eb 0e40 0000 0000 0cf8 9240 0b91 c041
00000010: e795 0d3f 0000 0000 68f5 2941 6cdb 9b41

linear.2.running_var f4 [8]
1.568619 7.0550393e-10 0.41113424 2.9796157 0.5455107 7.0550393e-10 6.564802 4.7739005
00000000: 82c8 c83f 6ded 4130 3080 d23e 06b2 3e40
00000010: 97a6 0b3f 6ded 4130 dc12 d240 cbc3 9840

linear.3.weight f4 [4, 8]
-0.030740807 0.35691494 -0.37211794 0.22814785 0.38402754 -0.3173744 0.07236236 -0.101011075
-0.26952088 -0.083956845 -0.1849883 -0.2602849 -0.2027213 0.083826244 0.3631601 0.1589122
-0.3815008 0.31908458 0.07482834 -0.230554 -0.056975987 0.15521482 -0.29044673 -0.014406969
-0.21629722 -0.07761965 -0.14278089 0.0034598738 0.16371463 -0.2653525 -0.37150642 -0.095500425
00000000: 25d4 fbbc 8ebd b63e 3e86 bebe 979f 693e
00000010: 429f c43e e67e a2be b832 943d e5de cebd
00000020: a4fe 89be 91f1 abbd 936d 3dbe 1044 85be
00000030: 2c96 4fbe 18ad ab3d 1ff0 b93e e1b9 223e
00000040: 1354 c3be 0e5f a33e 9a3f 993d 5916 6cbe
00000050: a75f 69bd a2f0 1e3e 6fb5 94be 350b 6cbc
00000060: 057d 5dbe 0df7 9ebd 2735 12be 0dbf 623b
00000070: cfa4 273e 48dc 87be 1736 bebe ba95 c3bd

linear.3.bias f4 [4]
-0.24769336 -0.02115816 0.31111988 0.24733348
00000000: 54a3 7dbe e153 adbc 1b4b 9f3e fd44 7d3e

linear.5.weight f4 [4]
1.0764778 1.025461 0.931971 1.079269
00000000: 06ca 893f 4e42 833f a795 6e3f 7d25 8a3f

linear.5.bias f4 [4]
-0.071607165 -0.066495664 -0.058965348 0.07859761
00000000: c7a6 92bd e12e 88bd a685 71bd c9f7 a03d

linear.5.running_mean f4 [4]
0.13494556 0.11153782 0.50339323 0.41624546
00000000: 2b2f 0a3e f16d e43d 61de 003f 201e d53e

linear.5.running_var f4 [4]
0.06236079 0.04056064 0.2661243 0.18748367
00000000: 076e 7f3d ea22 263d 7241 883e b8fb 3f3e

linear.6.weight f4 [2, 4]
-0.372464 -0.17858632 0.12485361 0.06603918 -0.5509269 -0.17034845 -0.101077564 0.24981861
00000000: 9ab3 bebe 55df 36be 40b3 ff3d 8d3f 873d
00000010: 8c09 0dbf d36f 2ebe c101 cfbd 73d0 7f3e

linear.6.bias f4 [2]
0.46033978 0.31845424
00000000: a8b1 eb3e 6f0c a33e

linear.8.weight f4 [2]
1.1272492 0.903863
00000000: b449 903f 9163 673f

linear.8.bias f4 [2]
0.04215017 -0.04216743
00000000: a8a5 2c3d c1b7 2cbd

linear.8.running_mean f4 [2]
0.58939034 0.55860347
00000000: 49e2 163f a300 0f3f

linear.8.running_var f4 [2]
0.144557 0.14253588
00000000: c006 143e edf4 113e

linear.9.weight f4 [1, 2]
0.3855136 -0.5019262
00000000: 0a62 c53e 3c7e 00bf
